weights/QATDeepConvLSTM_trained_mesl_data.pth (torch, 630893 bytes, 18 tensors)

cpu f8 [64]
0	0x3f6a7cfac0000000	0.003233422990888357
1	0x3f6b50f8a0000000	0.0033345085103064775
2	0x3f6560dac0000000	0.0026096603833138943
3	0x3f67ce35e0000000	0.0029059459920972586
4	0x3f6bcf12a0000000	0.0033946384210139513
5	0x3f6b7cd380000000	0.00335542019456625
6	0x3f697e2dc0000000	0.003111924510449171
7	0x3f6b97d5e0000000	0.0033682992216199636
8	0x3f68c917e0000000	0.003025576239451766
9	0x3f6bd69480000000	0.0033982181921601295
10	0x3f6923da80000000	0.0030688541010022163
11	0x3f6a384660000000	0.003200662089511752
12	0x3f6cb87920000000	0.0035059324000030756
13	0x3f6906fe00000000	0.0030550919473171234
14	0x3f65f63700000000	0.0026808809489011765
15	0x3f65dbc560000000	0.002668271539732814
16	0x3f638cdea0000000	0.002386507811024785
17	0x3f6b244c20000000	0.0033132063690572977
18	0x3f69c8a500000000	0.003147432580590248
19	0x3f6c90aa60000000	0.0034869506489485502
20	0x3f66db0180000000	0.0027899770066142082
21	0x3f5bb73300000000	0.0016916273161768913
22	0x3f69d8b500000000	0.003155091777443886
23	0x3f62d61800000000	0.0022993534803390503
24	0x3f6b036220000000	0.0032975117210298777
25	0x3f6176a9c0000000	0.0021317782811820507
26	0x3f69ef7280000000	0.003165935166180134
27	0x3f6942fec0000000	0.003083703573793173
28	0x3f69e6cba0000000	0.003161809640005231
29	0x3f69c35740000000	0.0031449035741388798
30	0x3f6835f320000000	0.0029554127249866724
31	0x3f6ad1f920000000	0.0032739511225372553
32	0x3f68615660000000	0.002976101590320468
33	0x3f6a86e3a0000000	0.0032381482888013124
34	0x3f67f98ea0000000	0.002926615299656987
35	0x3f63988a40000000	0.002392072696238756
36	0x3f6515b640000000	0.002573829609900713
37	0x3f67577440000000	0.00284931855276227
38	0x3f65fb2640000000	0.0026832339353859425
39	0x3f69ab8740000000	0.003133548889309168
40	0x3f679e03c0000000	0.0028829644434154034
41	0x3f69a36300000000	0.0031296666711568832
42	0x3f6aef7fa0000000	0.0032880299258977175
43	0x3f69c875e0000000	0.0031473448034375906
44	0x3f68f5fd00000000	0.003046983852982521
45	0x3f6c2c9f60000000	0.003439246444031596
46	0x3f6c362040000000	0.0034437780268490314
47	0x3f619c60a0000000	0.002149761887267232
48	0x3f68a128c0000000	0.0030065341852605343
49	0x3f6b709b40000000	0.003349593374878168
50	0x3f6aaf4aa0000000	0.0032574136275798082
51	0x3f6beaa980000000	0.003407794050872326
52	0x3f66e23bc0000000	0.002793423365801573
53	0x3f69a8c6c0000000	0.0031322366558015347
54	0x3f60830e00000000	0.0020156167447566986
55	0x3f68210e40000000	0.0029454496689140797
56	0x3f6c56cc40000000	0.003459357190877199
57	0x3f6aa53d20000000	0.0032526201102882624
58	0x3f6b56bb60000000	0.003337255446240306
59	0x3f680d4380000000	0.0029360121116042137
60	0x3f69d29ea0000000	0.003152189077809453
61	0x3f6bc5dee0000000	0.0033902504947036505
62	0x3f620fe520000000	0.0022048449609428644
63	0x3f6b1af440000000	0.003308751154690981

conv1.bias f4 [64]
0	0x3da8438b	0.08216008
1	0x3ebfcca3	0.37460813
2	0xbe3a74cb	-0.18208615
3	0x3d174264	0.03692855
4	0x3e01c0cb	0.12671201
5	0xbe257223	-0.16156821
6	0xbd9da648	-0.07697731
7	0xbeb76736	-0.3582093
8	0x3ed12f3e	0.40856355
9	0x3d9fe448	0.07807213
10	0x3ed0da89	0.4079173
11	0xbdc7d5da	-0.09757586
12	0x3d944995	0.07240597
13	0xbca8fab9	-0.020627366
14	0x3d9e5d3c	0.07732627
15	0x3bad4151	0.0052873273
16	0xbebb8d0c	-0.36631048
17	0xbec65c14	-0.38742125
18	0x3db99258	0.09061116
19	0x3e513938	0.20431983
20	0xbedcac48	-0.4310019
21	0x3eb158d7	0.34638092
22	0x3ed5d0b9	0.41760805
23	0xbea07350	-0.31337976
24	0xbbe106d7	-0.0068672705
25	0x3eaa26de	0.33232778
26	0x3c53723f	0.012905656
27	0xbe822015	-0.25415102
28	0x3e8cf797	0.27532646
29	0x3e7bad1b	0.24577753
30	0xbeb60884	-0.35553372
31	0x3eb46477	0.352329
32	0xbe498a68	-0.19681704
33	0x3ecb2007	0.39672872
34	0x3ee899d7	0.4542987
35	0x3e9187d2	0.28423935
36	0xbeadf61d	-0.33976832
37	0xbe799a3a	-0.24375239
38	0x3c08b570	0.008344039
39	0x3ed005e4	0.40629494
40	0x3ed26458	0.4109218
41	0x3e87fe14	0.26561034
42	0xbea43396	-0.32070607
43	0xbe5743f0	-0.2102201
44	0x3edad4f2	0.4274059
45	0xbe4b4be5	-0.1985317
46	0xbed1ca34	-0.4097458
47	0x3ee310e4	0.44348824
48	0x3e2925cb	0.16518323
49	0xbe4cc659	-0.19997539
50	0xbeaa0c7e	-0.33212656
51	0xbe91acee	-0.28452247
52	0x3e54826a	0.20752874
53	0xbecb340d	-0.3968815
54	0x3edb8cc8	0.42880845
55	0x3ea7ecce	0.32797855
56	0x3ec41508	0.38297296
57	0x3e5ee86c	0.2176835
58	0xbdb3cac0	-0.08778906
59	0x3e85f7c0	0.2616558
60	0xbe2e2821	-0.17007495
61	0x3e8eb18c	0.27869833
62	0x3e8fa90f	0.2805867
63	0x3eddf6d2	0.4335237

cpu f8 [64]
0	0x3f3dcf7d80000000	0.0004548722645267844
1	0x3f3d8302e0000000	0.0004503137606661767
2	0x3f3d5f35c0000000	0.0004481798387132585
3	0x3f3d93d2a0000000	0.000451315805548802
4	0x3f3d481cc0000000	0.0004468031111173332
5	0x3f3dc90b80000000	0.00045448809396475554
6	0x3f3dd60ca0000000	0.0004552632162813097
7	0x3f3dcd50e0000000	0.0004547426651697606
8	0x3f3d94d220000000	0.0004513752937782556
9	0x3f3d8bc920000000	0.0004508367564994842
10	0x3f3e183fa0000000	0.00045920899719931185
11	0x3f3d820260000000	0.00045025403960607946
12	0x3f3d660500000000	0.0004485857207328081
13	0x3f3d6df740000000	0.000449059356469661
14	0x3f3df467a0000000	0.00045707254321314394
15	0x3f3dbda680000000	0.0004538089269772172
16	0x3f3df82660000000	0.0004572957695927471
17	0x3f3dc2d7c0000000	0.0004541184171102941
18	0x3f3e0f4f60000000	0.0004586762224789709
19	0x3f3d757440000000	0.00044950569281354547
20	0x3f3dc54de0000000	0.0004542651295196265
21	0x3f3dc26120000000	0.00045409079757519066
22	0x3f3df78ee0000000	0.00045726049575023353
23	0x3f3d683860000000	0.0004487168916966766
24	0x3f3dc376c0000000	0.00045415543718263507
25	0x3f3daea2c0000000	0.00045291398419067264
26	0x3f3d3a3140000000	0.0004459734191186726
27	0x3f3da44cc0000000	0.0004522979143075645
28	0x3f3d48f120000000	0.00044685255852527916
29	0x3f3e1416e0000000	0.0004589610907714814
30	0x3f3dd3c600000000	0.0004551275633275509
31	0x3f3d743480000000	0.00044943124521523714
32	0x3f3dfc84e0000000	0.00045755619066767395
33	0x3f3de65160000000	0.0004562328977044672
34	0x3f3e1f2f00000000	0.00045962235890328884
35	0x3f3df65980000000	0.0004571884637698531
36	0x3f3e1e3c60000000	0.0004595658683683723
37	0x3f3da7d9c0000000	0.00045250955736264586
38	0x3f3e0212e0000000	0.00045788727584294975
39	0x3f3da4ee60000000	0.00045233554556034505
40	0x3f3df3eb20000000	0.00045704355579800904
41	0x3f3dd38560000000	0.00045511251664720476
42	0x3f3caee2c0000000	0.0004376700962893665
43	0x3f3dcc1400000000	0.00045466888695955276
44	0x3f3da4f180000000	0.00045233627315610647
45	0x3f3d406c60000000	0.000446344813099131
46	0x3f3ddcc500000000	0.00045566377229988575
47	0x3f3e0398a0000000	0.00045797802158631384
48	0x3f3d3d6400000000	0.0004461640492081642
49	0x3f3e034a20000000	0.000457959744380787
50	0x3f3e0f4080000000	0.00045867275912314653
51	0x3f3d8c5dc0000000	0.00045087136095389724
52	0x3f3dfd4d60000000	0.00045760287321172655
53	0x3f3d165c80000000	0.0004438377218320966
54	0x3f3db6ce80000000	0.0004534010076895356
55	0x3f3dd47460000000	0.00045516816317103803
56	0x3f3dd94740000000	0.0004554556799121201
57	0x3f3d5c99a0000000	0.00044802427873946726
58	0x3f3e0cad40000000	0.0004585192655213177
59	0x3f3d60d520000000	0.00044827655074186623
60	0x3f3dd002a0000000	0.00045490326010622084
61	0x3f3dfa0e40000000	0.0004574093618430197
62	0x3f3dcbb900000000	0.00045464769937098026
63	0x3f3d9fbfc0000000	0.00045202666660770774

conv2.bias f4 [64]
0	0x3c81a6d7	0.015826626
1	0x3d5bbd9a	0.053647615
2	0x3cad5454	0.021158375
3	0xbc541750	-0.012945011
4	0xbcd657ea	-0.026164968
5	0x3c3f008e	0.011657847
6	0x3d06c561	0.03290308
7	0xb8dd334e	-0.000105476574
8	0xb93d9f52	-0.00018083796
9	0x3cdda262	0.02705497
10	0x3d0b4b20	0.03400719
11	0x3d6fe19b	0.058564764
12	0xbcef0da7	-0.029181315
13	0x3d4ec786	0.05048325
14	0x3d036705	0.03208067
15	0xbcf5c8d6	-0.030002993
16	0x3d60f1d1	0.054918114
17	0x3cf7682a	0.030201036
18	0xbc091bd6	-0.008368453
19	0x3d2cb44b	0.04216413
20	0x3cee8b18	0.02911906
21	0xbd3b9dc8	-0.04580477
22	0x3d818a55	0.06325213
23	0x3cead6b8	0.028666839
24	0xbd2666d3	-0.040625405
25	0x3bc37874	0.005965287
26	0x3c9a85d7	0.018862648
27	0xbd380c2f	-0.044933494
28	0xbc431bb7	-0.011908463
29	0x3c0fee37	0.008784822
30	0x3c150a09	0.009096631
31	0xbce7b431	-0.028284164
32	0xbd2d907f	-0.04237413
33	0xbc6d10a8	-0.014469303
34	0x3cde7f89	0.027160423
35	0xbadd558a	-0.0016886455
36	0x3d303c63	0.04302634
37	0xbd0c2cc5	-0.034222383
38	0x3d24e683	0.040258896
39	0xbca79cb4	-0.020460464
40	0xbcfec32c	-0.031098925
41	0xbb4f3934	-0.003161979
42	0x3d42e936	0.04758569
43	0xbc7a9a0b	-0.015295516
44	0x3d229480	0.039692402
45	0xbd29747d	-0.041370858
46	0xbce21bb9	-0.02760111
47	0xbd51de87	-0.05123761
48	0x3b6deea1	0.0036305564
49	0x3c044876	0.008073917
50	0x3d19b027	0.037521508
51	0x3d0de860	0.03464544
52	0xbd30988c	-0.04311423
53	0xbd195dd0	-0.037442982
54	0xbd0a89c3	-0.033822786
55	0xbc7cd383	-0.015431288
56	0x3d242832	0.040077396
57	0x3cd741aa	0.026276428
58	0xbc652f37	-0.013988308
59	0x3d24e516	0.040257536
60	0x3d00d3d6	0.031452022
61	0xbac6e76f	-0.0015175174
62	0xbbc71726	-0.0060757576
63	0xb98fe2a0	-0.00027443934

cpu f8 [64]
0	0x3f3da71360000000	0.00045246336958371103
1	0x3f3df8f660000000	0.0004573441983666271
2	0x3f3db71b80000000	0.00045341893564909697
3	0x3f3dec4260000000	0.0004565870331134647
4	0x3f3d85d220000000	0.0004504812241066247
5	0x3f3dd59640000000	0.0004552356549538672
6	0x3f3d452d20000000	0.00044662810978479683
7	0x3f3e0687e0000000	0.0004581529356073588
8	0x3f3db56640000000	0.0004533171304501593
9	0x3f3d289b20000000	0.00044492518645711243
10	0x3f3dcbfa20000000	0.0004546628624666482
11	0x3f3dfdf8a0000000	0.00045764274545945227
12	0x3f3e2999a0000000	0.00046024323091842234
13	0x3f3d051b00000000	0.0004428091924637556
14	0x3f3dd72e20000000	0.0004553306207526475
15	0x3f3da38ae0000000	0.0004522527742665261
16	0x3f3ceacb00000000	0.00044124084524810314
17	0x3f3e36c480000000	0.0004610280739143491
18	0x3f3e062000000000	0.00045812875032424927
19	0x3f3de15c40000000	0.00045593740651383996
20	0x3f3d4e1f60000000	0.0004471613501664251
21	0x3f3dce8420000000	0.00045481420238502324
22	0x3f3e102d80000000	0.0004587279399856925
23	0x3f3d795dc0000000	0.0004497388727031648
24	0x3f3e0967a0000000	0.00045832424075342715
25	0x3f3dcd0840000000	0.0004547257558442652
26	0x3f3e220940000000	0.0004597923834808171
27	0x3f3e04c8e0000000	0.00045804886030964553
28	0x3f3df68960000000	0.00045719961053691804
29	0x3f3e39e840000000	0.0004612152115441859
30	0x3f3e1a5720000000	0.0004593336780089885
31	0x3f3cf95220000000	0.00044210677151568234
32	0x3f3d98aba0000000	0.00045160474837757647
33	0x3f3d44e3c0000000	0.00044661102583631873
34	0x3f3db3f8e0000000	0.0004532320599537343
35	0x3f3cf0f360000000	0.000441607873653993
36	0x3f3e033640000000	0.0004579551168717444
37	0x3f3dbf5500000000	0.0004539091605693102
38	0x3f3e077980000000	0.0004582091933116317
39	0x3f3dcbeb20000000	0.0004546593700069934
40	0x3f3ddc8360000000	0.00045564849278889596
41	0x3f3d7d81a0000000	0.00044998564408160746
42	0x3f3e022760000000	0.00045789204887114465
43	0x3f3de3a4c0000000	0.00045607349602505565
44	0x3f3e170300000000	0.00045913527719676495
45	0x3f3dc7ea00000000	0.00045442068949341774
46	0x3f3e103740000000	0.0004587302100844681
47	0x3f3d59b040000000	0.00044785073259845376
48	0x3f3d4ae580000000	0.00044696906115859747
49	0x3f3cbbd800000000	0.0004384424537420273
50	0x3f3da09120000000	0.00045207541552372277
51	0x3f3cec29a0000000	0.0004413224814925343
52	0x3f3dce8c80000000	0.00045481615234166384
53	0x3f3d5865a0000000	0.0004477737529668957
54	0x3f3e150b60000000	0.00045901801786385477
55	0x3f3d8562c0000000	0.00045045529259368777
56	0x3f3def5f60000000	0.00045677259913645685
57	0x3f3e1cbd80000000	0.00045947672333568335
58	0x3f3d8cef20000000	0.0004509052087087184
59	0x3f3cdaa080000000	0.0004402772756293416
60	0x3f3dfe6c60000000	0.0004576696956064552
61	0x3f3db748a0000000	0.00045342944213189185
62	0x3f3cbb0880000000	0.0004383941413834691
63	0x3f3df94b80000000	0.00045736401807516813

conv3.bias f4 [64]
0	0x3d31bd29	0.043393288
1	0x3d358350	0.044314682
2	0x3943180a	0.00018605604
3	0x3d064aef	0.032786306
4	0xbd61c395	-0.055118162
5	0x3cc8e5e4	0.024523683
6	0xbc79e662	-0.015252681
7	0xbd01e93a	-0.031716563
8	0x3d1a74bb	0.03770898
9	0xbc3d11b1	-0.0115398625
10	0x3cb65a9e	0.022260007
11	0xbcfb8710	-0.030704051
12	0xbcffc8f5	-0.031223753
13	0xbcd96160	-0.02653569
14	0x3b3ff38c	0.0029289452
15	0xbd5071da	-0.050889827
16	0xbd341f76	-0.043975316
17	0xbcc54eb9	-0.02408539
18	0xbc2d56d1	-0.010579781
19	0x3d0b658a	0.034032382
20	0xbcf491f9	-0.029854761
21	0xbc8a9d1f	-0.016920624
22	0x3c6166c5	0.013757412
23	0x3cdb0041	0.02673352
24	0x3ce208a4	0.02759201
25	0xbcfd8da8	-0.030951336
26	0xbc48bbb7	-0.012251786
27	0xbbcdfedf	-0.0062864865
28	0x3c7c0b0b	0.015383492
29	0x3d5f18df	0.05446708
30	0x3c65fee5	0.014037822
31	0x3d5cc9fc	0.053903565
32	0x3c0d7eaa	0.008636156
33	0x3d4592c4	0.04823567
34	0xbc554382	-0.013016583
35	0x3aeebdce	0.0018214525
36	0xbc0132f6	-0.007885685
37	0x3cafa1a2	0.021439377
38	0x3be74b06	0.007058504
39	0x3c19a7d3	0.009378391
40	0x3d5b33f9	0.05351636
41	0xbcb229f5	-0.021748522
42	0xbb434f87	-0.002980204
43	0xb9ef6afe	-0.00045665348
44	0x3c656750	0.014001682
45	0x3cbbce75	0.022925595
46	0xbca84308	-0.020539775
47	0xbc899236	-0.016793352
48	0xbc71873a	-0.014741713
49	0xbd1ba3d7	-0.037998047
50	0x3b80bdd8	0.003928881
51	0xbc1a5091	-0.009418623
52	0x3d20df67	0.039275553
53	0x3cdf2975	0.027241448
54	0x3d43b8e5	0.04778375
55	0x3d4f4d62	0.050610907
56	0x3d73461f	0.059393045
57	0x3cd5276f	0.02601978
58	0xbcf84f12	-0.030311141
59	0xbc85c89b	-0.016331008
60	0x3d1ee992	0.03879697
61	0x3c655b12	0.013998764
62	0xbd38a31c	-0.04507743
63	0xbd22db26	-0.039759777

cpu f8 [64]
0	0x3f3dea2b80000000	0.00045646249782294035
1	0x3f3e0fa7e0000000	0.00045869682799093425
2	0x3f3d389420000000	0.0004458772309590131
3	0x3f3dbd46e0000000	0.0004537866625469178
4	0x3f3d84ffe0000000	0.0004504322714637965
5	0x3f3da6ee60000000	0.00045245475484989583
6	0x3f3ddc89c0000000	0.00045564997708424926
7	0x3f3da3b260000000	0.00045226197107695043
8	0x3f3dedc220000000	0.0004566763818729669
9	0x3f3dc23fe0000000	0.00045408305595628917
10	0x3f3e4bc160000000	0.00046227904385887086
11	0x3f3dd888a0000000	0.0004554112965706736
12	0x3f3ca5cf40000000	0.0004371291142888367
13	0x3f3e2066a0000000	0.0004596949147526175
14	0x3f3d7037e0000000	0.0004491936124395579
15	0x3f3e2d6da0000000	0.00046047140494920313
16	0x3f3d361c20000000	0.00044573008199222386
17	0x3f3cafa120000000	0.0004377144214231521
18	0x3f3d57e0e0000000	0.00044774284469895065
19	0x3f3cb68d20000000	0.00043812699732370675
20	0x3f3e118760000000	0.0004588084702845663
21	0x3f3d62bb40000000	0.00044838973553851247
22	0x3f3e07d6c0000000	0.0004582309047691524
23	0x3f3dcb1c40000000	0.0004546112031675875
24	0x3f3e117620000000	0.00045880445395596325
25	0x3f3e26c260000000	0.00046007390483282506
26	0x3f3dcfdc60000000	0.0004548943543341011
27	0x3f3d57e7a0000000	0.0004477444163057953
28	0x3f3daa4000000000	0.00045265257358551025
29	0x3f3e0e8d00000000	0.00045863096602261066
30	0x3f3d8de240000000	0.00045096181565895677
31	0x3f3dec4040000000	0.00045658653834834695
32	0x3f3d7aee00000000	0.0004498320631682873
33	0x3f3dcbef20000000	0.00045466030132956803
34	0x3f3d289520000000	0.0004449237894732505
35	0x3f3e1dfd80000000	0.0004595512291416526
36	0x3f3d152cc0000000	0.0004437669995240867
37	0x3f3d8d5140000000	0.00045092805521562696
38	0x3f3dbbefa0000000	0.0004537067434284836
39	0x3f3dca44e0000000	0.00045456105726771057
40	0x3f3deaec00000000	0.0004565073177218437
41	0x3f3de4bda0000000	0.00045613889233209193
42	0x3f3e3e8000000000	0.0004614889621734619
43	0x3f3e153a60000000	0.0004590289609041065
44	0x3f3de49ba0000000	0.0004561309760902077
45	0x3f3d1dab80000000	0.00044427334796637297
46	0x3f3de91920000000	0.0004563986149150878
47	0x3f3dbdc300000000	0.00045381556265056133
48	0x3f3da59a80000000	0.000452375621534884
49	0x3f3dc7d4a0000000	0.00045441571273840964
50	0x3f3cd8f2a0000000	0.0004401771875564009
51	0x3f3c9674a0000000	0.0004362139443401247
52	0x3f3e1ad580000000	0.00045936310198158026
53	0x3f3de65720000000	0.0004562342364806682
54	0x3f3e34d340000000	0.0004609122988767922
55	0x3f3d1c8340000000	0.0004442043718881905
56	0x3f3cb61860000000	0.00043809981434606016
57	0x3f3debc8c0000000	0.0004565587150864303
58	0x3f3e3e0c40000000	0.000461462012026459
59	0x3f3dfffa60000000	0.00045776236220262945
60	0x3f3dec60c0000000	0.0004565941053442657
61	0x3f3c9745e0000000	0.0004362626641523093
62	0x3f3dec55c0000000	0.0004565915442071855
63	0x3f3dfaa740000000	0.00045744498493149877

conv4.bias f4 [64]
0	0x3d247120	0.040146947
1	0xbd532e9b	-0.05155812
2	0xbd304c06	-0.04304125
3	0xbcff56e2	-0.031169359
4	0x3cad312c	0.021141611
5	0x3d1e953c	0.03871654
6	0xbcb4b410	-0.022058517
7	0x3b61cbab	0.003445367
8	0xbc8ed740	-0.017436624
9	0x3d738928	0.059456974
10	0x3d723a6f	0.059137758
11	0x3cd02bae	0.025411453
12	0xbca09a82	-0.019604925
13	0xbb07be7f	-0.002071291
14	0xbd400508	-0.0468798
15	0xbd21d76e	-0.03951209
16	0x3d06e3c4	0.032932058
17	0xbd16b266	-0.036791228
18	0x3c1a9b6e	0.009436471
19	0xbd1ac60e	-0.037786536
20	0x3d3c7cfe	0.04601764
21	0x3c4b5cce	0.012412263
22	0x3d323b84	0.04351379
23	0xbd15b5be	-0.036550276
24	0xbcc8dc42	-0.02451909
25	0xbd3f66c4	-0.046728864
26	0xbd073f9b	-0.033019643
27	0x3d2e9498	0.04262218
28	0x3d10a4ad	0.035313297
29	0x3c256770	0.010095462
30	0xbc9cdffb	-0.019149771
31	0xbc9def29	-0.01927908
32	0x3d354e9c	0.04426442
33	0xbcaaefc1	-0.020866277
34	0x3d4e7197	0.050401296
35	0xbd072eac	-0.033003494
36	0xbd63768d	-0.05553298
37	0xbcfe378c	-0.031032346
38	0xbd02fbff	-0.031978603
39	0x3d14ce1a	0.036329366
40	0x3d470e27	0.04859748
41	0xbd36e5a9	-0.044652615
42	0x3cafb869	0.021450238
43	0x3ca87373	0.020562863
44	0xbbde9566	-0.006792712
45	0xbbf553e0	-0.0074868053
46	0xbd3363a2	-0.04379619
47	0x3d37e60a	0.044897117
48	0x3d0cea8e	0.034403376
49	0x3d7205f5	0.059087712
50	0xbd3281f8	-0.04358098
51	0xbd025907	-0.031823184
52	0x3d21f747	0.039542463
53	0x3c6668e0	0.01406309
54	0xbd461859	-0.048363063
55	0xbd33c632	-0.043890186
56	0xbbe68d64	-0.007035898
57	0x3d32b92a	0.043633617
58	0x3cbb3c2a	0.022855837
59	0x3a72ce50	0.00092623103
60	0x3d5487e7	0.05188742
61	0x3c564b92	0.013079541
62	0x3c25ee5b	0.010127629
63	0x3ca1eae0	0.019765317

cpu f8 [512]
0	0x3f478c8b40000000	0.000718658440746367
1	0x3f48907200000000	0.0007496410980820656
2	0x3f472250c0000000	0.0007059950148686767
3	0x3f48991d40000000	0.0007506745168939233
4	0x3f47ee9f00000000	0.0007303501479327679
5	0x3f480cef00000000	0.0007339636795222759
6	0x3f493e2600000000	0.0007703481242060661
7	0x3f4867b4e0000000	0.0007447846583090723
8	0x3f47ce4e40000000	0.0007264978485181928
9	0x3f4890f760000000	0.0007497032056562603
10	0x3f47edbde0000000	0.0007302453159354627
11	0x3f48d10ee0000000	0.000757343543227762
12	0x3f48ae3d40000000	0.0007531928131356835
13	0x3f47ae5140000000	0.0007226845482364297
14	0x3f498d2500000000	0.0007797651924192905
15	0x3f47fdbec0000000	0.0007321530720219016
16	0x3f4860e600000000	0.0007439730688929558
17	0x3f47520260000000	0.0007116805645637214
18	0x3f47db6060000000	0.0007280560093931854
19	0x3f478e8800000000	0.0007188953459262848
20	0x3f484657a0000000	0.000740807328838855
21	0x3f48536760000000	0.0007423643837682903
22	0x3f49974720000000	0.0007809731760062277
23	0x3f48628e80000000	0.0007441707421094179
24	0x3f47b1ec20000000	0.0007231142953969538
25	0x3f47942f00000000	0.0007195691578090191
26	0x3f47c96aa0000000	0.0007259150152094662
27	0x3f4785cf40000000	0.0007178556406870484
28	0x3f47ce50e0000000	0.000726499070879072
29	0x3f48aae640000000	0.0007527946727350354
30	0x3f479ece20000000	0.0007208353490568697
31	0x3f47b59ec0000000	0.0007235551020130515
32	0x3f482f4c60000000	0.0007380602764897048
33	0x3f48662680000000	0.000744599150493741
34	0x3f49e23b00000000	0.0007899082265794277
35	0x3f479cd120000000	0.0007205983274616301
36	0x3f47c960c0000000	0.0007259104168042541
37	0x3f4795b8c0000000	0.0007197525119408965
38	0x3f47bb1800000000	0.0007242076098918915
39	0x3f482e2f60000000	0.0007379275630228221
40	0x3f48a169a0000000	0.0007516637560911477
41	0x3f4773ff40000000	0.0007157322252169251
42	0x3f49ed48a0000000	0.0007912258733995259
43	0x3f48628060000000	0.0007441641646437347
44	0x3f48cec3a0000000	0.0007570700836367905
45	0x3f482e7b60000000	0.0007379629532806575
46	0x3f477c7e00000000	0.0007167449221014977
47	0x3f498f40e0000000	0.0007800165913067758
48	0x3f47c3f9e0000000	0.0007252664654515684
49	0x3f47b0f8a0000000	0.0007230009068734944
50	0x3f48a64e80000000	0.0007522471714764833
51	0x3f47f8b4e0000000	0.0007315524271689355
52	0x3f47d28940000000	0.000727002159692347
53	0x3f4866d7a0000000	0.0007446816307492554
54	0x3f483de5e0000000	0.0007398006855510175
55	0x3f48fa4980000000	0.0007622584234923124
56	0x3f48380d40000000	0.0007391037652269006
57	0x3f49421540000000	0.0007708171615377069
58	0x3f47dee920000000	0.0007284773164428771
59	0x3f47802c80000000	0.0007171838078647852
60	0x3f48690340000000	0.0007449403638020158
61	0x3f47db7600000000	0.0007280660793185234
62	0x3f48b053e0000000	0.0007534417673014104
63	0x3f48d4ad60000000	0.0007577749784104526
64	0x3f47a333c0000000	0.0007213595090433955
65	0x3f47bbb980000000	0.0007242828141897917
66	0x3f484a68a0000000	0.0007412920822389424
67	0x3f4862ea40000000	0.0007442134665325284
68	0x3f48db40e0000000	0.0007585589191876352
69	0x3f483d3f40000000	0.0007397230947390199
70	0x3f4802c100000000	0.000732750166207552
71	0x3f4742bbc0000000	0.0007098595378920436
72	0x3f47b21da0000000	0.0007231373456306756
73	0x3f4857eda0000000	0.0007429037359543145
74	0x3f47ddd1a0000000	0.0007283471641130745
75	0x3f49551180000000	0.0007730803918093443
76	0x3f4720ed80000000	0.0007058295886963606
77	0x3f47a626c0000000	0.0007217110833153129
78	0x3f47222400000000	0.0007059741765260696
79	0x3f48801880000000	0.000747692072764039
80	0x3f482b8480000000	0.0007376095745712519
81	0x3f481e9da0000000	0.0007360715535469353
82	0x3f47764900000000	0.0007160049863159657
83	0x3f4741dbe0000000	0.0007097552879713476
84	0x3f48547260000000	0.0007424887153320014
85	0x3f47af0220000000	0.0007227669120766222
86	0x3f48f84d00000000	0.0007620216347277164
87	0x3f48eab5c0000000	0.000760401482693851
88	0x3f47e43b20000000	0.0007291115471161902
89	0x3f4977ad00000000	0.0007772059179842472
90	0x3f4835fe80000000	0.0007388584781438112
91	0x3f48440340000000	0.0007405296200886369
92	0x3f47a9bf80000000	0.0007221398409456015
93	0x3f487f6aa0000000	0.0007476111059077084
94	0x3f495cbae0000000	0.0007739937282167375
95	0x3f47e9d940000000	0.0007297812262549996
96	0x3f4965a140000000	0.0007750546792522073
97	0x3f47e26e40000000	0.0007288969354704022
98	0x3f48862ba0000000	0.0007484162342734635
99	0x3f489b38c0000000	0.0007509257411584258
100	0x3f476f89a0000000	0.0007152006146498024
101	0x3f47964e60000000	0.0007198221865110099
102	0x3f48ae80e0000000	0.0007532243034802377
103	0x3f47bb5fc0000000	0.0007242410210892558
104	0x3f47ee4820000000	0.000730309693608433
105	0x3f482093c0000000	0.0007363053737208247
106	0x3f489403c0000000	0.000750066596083343
107	0x3f4817a800000000	0.0007352419197559357
108	0x3f47869bc0000000	0.0007179508684203029
109	0x3f47c3de80000000	0.0007252537179738283
110	0x3f48359860000000	0.0007388109224848449
111	0x3f47c5dbe0000000	0.0007254909141920507
112	0x3f4768fa20000000	0.0007144185365177691
113	0x3f48704920000000	0.0007458073669113219
114	0x3f48c3cf40000000	0.0007557641947641969
115	0x3f47e8a760000000	0.0007296387921087444
116	0x3f473dc440000000	0.0007092674495652318
117	0x3f4760cde0000000	0.0007134442566893995
118	0x3f47fc8d20000000	0.0007320107542909682
119	0x3f476c0200000000	0.000714779831469059
120	0x3f48204e00000000	0.000736272893846035
121	0x3f48791ba0000000	0.0007468590629287064
122	0x3f4866aaa0000000	0.0007446606759913266
123	0x3f47f20bc0000000	0.0007307584164664149
124	0x3f48ae1be0000000	0.0007531772716902196
125	0x3f4752a5c0000000	0.0007117566419765353
126	0x3f47174900000000	0.0007046801038086414
127	0x3f4864b2a0000000	0.0007444259827025235
128	0x3f49ae2a40000000	0.0007837015436962247
129	0x3f48500420000000	0.0007419605390168726
130	0x3f4830d4c0000000	0.0007382429903373122
131	0x3f494a7760000000	0.0007718165288679302
132	0x3f47a445a0000000	0.0007214870420284569
133	0x3f4889e360000000	0.0007488594274036586
134	0x3f49ab5980000000	0.0007833659183233976
135	0x3f48e54260000000	0.000759751710575074
136	0x3f490c4160000000	0.0007644004072062671
137	0x3f48b06e40000000	0.0007534540491178632
138	0x3f48527f40000000	0.000742256292141974
139	0x3f4a4d94e0000000	0.0008027054718695581
140	0x3f48d1c2e0000000	0.0007574273622594774
141	0x3f47bcbf80000000	0.0007244048174470663
142	0x3f48d88f00000000	0.0007582376711070538
143	0x3f496d2ee0000000	0.0007759550935588777
144	0x3f479514c0000000	0.000719676143489778
145	0x3f48f7f9c0000000	0.0007619828684255481
146	0x3f488abe60000000	0.000748961407225579
147	0x3f474f0540000000	0.0007113242754712701
148	0x3f48e7fe20000000	0.0007600775570608675
149	0x3f495a56e0000000	0.0007737087435089052
150	0x3f4958a800000000	0.0007735081017017365
151	0x3f486aaf00000000	0.0007451395504176617
152	0x3f48c796c0000000	0.0007562147220596671
153	0x3f489e7380000000	0.0007513107266277075
154	0x3f478d72e0000000	0.0007187662995420396
155	0x3f47843e20000000	0.0007176688523031771
156	0x3f486c4600000000	0.0007453290745615959
157	0x3f4752c4e0000000	0.0007117711356841028
158	0x3f48babf20000000	0.000754683802369982
159	0x3f482c8980000000	0.0007377311121672392
160	0x3f48d1a860000000	0.0007574150222353637
161	0x3f48c09160000000	0.0007553777541033924
162	0x3f4981a020000000	0.0007783920154906809
163	0x3f49502300000000	0.0007724924944341183
164	0x3f47b18a00000000	0.0007230686023831367
165	0x3f4775a6a0000000	0.0007159293745644391
166	0x3f47aac020000000	0.0007222593412734568
167	0x3f495cc0e0000000	0.0007739965221844614
168	0x3f490468a0000000	0.0007634650100953877
169	0x3f48cbba20000000	0.0007567080319859087
170	0x3f48056a40000000	0.0007330673979595304
171	0x3f48025460000000	0.0007326995837502182
172	0x3f48497460000000	0.0007411783444695175
173	0x3f490d6720000000	0.0007645371952094138
174	0x3f47e0c580000000	0.0007286991458386183
175	0x3f48aa60e0000000	0.0007527325651608407
176	0x3f47e288e0000000	0.0007289093337021768
177	0x3f4818b380000000	0.0007353664841502905
178	0x3f4932fb20000000	0.0007690168567933142
179	0x3f48049240000000	0.0007329668151214719
180	0x3f483d1220000000	0.0007397020817734301
181	0x3f482eb460000000	0.0007379894959740341
182	0x3f49f6bae0000000	0.0007923519588075578
183	0x3f488f44a0000000	0.0007495007594116032
184	0x3f489da760000000	0.0007512156735174358
185	0x3f49e5cec0000000	0.0007903346559032798
186	0x3f49ad23a0000000	0.0007835792494006455
187	0x3f492a9760000000	0.000768016732763499
188	0x3f49723fc0000000	0.0007765589980408549
189	0x3f481ca680000000	0.0007358372677117586
190	0x3f4802ee20000000	0.0007327711791731417
191	0x3f488875a0000000	0.0007486891117878258
192	0x3f481ae7e0000000	0.0007356292917393148
193	0x3f47837fc0000000	0.0007175802020356059
194	0x3f4802d6c0000000	0.0007327602943405509
195	0x3f48e3e5a0000000	0.0007595893112011254
196	0x3f48e0f4a0000000	0.0007592386682517827
197	0x3f47e819e0000000	0.0007295729010365903
198	0x3f47bd1500000000	0.0007244446314871311
199	0x3f47cfa620000000	0.0007266579777933657
200	0x3f47913b60000000	0.0007192172924987972
201	0x3f48072940000000	0.0007332755485549569
202	0x3f47f3c700000000	0.0007309648208320141
203	0x3f494df200000000	0.0007722312584519386
204	0x3f484980a0000000	0.000741184048820287
205	0x3f4769fae0000000	0.0007145380950532854
206	0x3f47541200000000	0.0007119262591004372
207	0x3f481e7940000000	0.0007360546151176095
208	0x3f47938ee0000000	0.0007194945937953889
209	0x3f488987c0000000	0.0007488167611882091
210	0x3f47bafee0000000	0.0007241959101520479
211	0x3f4935f7c0000000	0.0007693729130551219
212	0x3f491eba80000000	0.0007666025776416063
213	0x3f4a4158c0000000	0.0008012469625100493
214	0x3f48740800000000	0.0007462538778781891
215	0x3f4811f9a0000000	0.0007345646736212075
216	0x3f48dfac80000000	0.0007590858731418848
217	0x3f4a2a8560000000	0.0007985259289853275
218	0x3f48daafc0000000	0.0007584913400933146
219	0x3f4837b560000000	0.0007390628452412784
220	0x3f47e0be60000000	0.0007286958280019462
221	0x3f48e96920000000	0.0007602465921081603
222	0x3f498e3b40000000	0.0007798947626724839
223	0x3f49fa8780000000	0.0007928048726171255
224	0x3f480204a0000000	0.0007326624472625554
225	0x3f47e76b40000000	0.0007294915849342942
226	0x3f49beaa80000000	0.0007856686133891344
227	0x3f49072b00000000	0.0007637939415872097
228	0x3f47382820000000	0.000708598701748997
229	0x3f48f21fe0000000	0.000761285366024822
230	0x3f48d869c0000000	0.0007582203252241015
231	0x3f478cdc00000000	0.0007186960428953171
232	0x3f4819ba60000000	0.0007354888948611915
233	0x3f48cfdb80000000	0.0007572004105895758
234	0x3f493cc2a0000000	0.0007701826398260891
235	0x3f47de9c80000000	0.0007284416351467371
236	0x3f47950480000000	0.0007196685764938593
237	0x3f487430a0000000	0.000746272795367986
238	0x3f476f9100000000	0.0007152040489017963
239	0x3f47da3ae0000000	0.0007279193378053606
240	0x3f48081a80000000	0.0007333878893405199
241	0x3f4889ea00000000	0.000748862512409687
242	0x3f489513c0000000	0.0007501932559534907
243	0x3f49567200000000	0.0007732445374131203
244	0x3f481d9320000000	0.0007359474548138678
245	0x3f48293520000000	0.0007373341941274703
246	0x3f47f8df40000000	0.0007315721595659852
247	0x3f479ea1c0000000	0.0007208146853372455
248	0x3f48f1e120000000	0.0007612561457790434
249	0x3f4858ce40000000	0.000743008335120976
250	0x3f47c3b3e0000000	0.0007252338691614568
251	0x3f483adc00000000	0.000739438459277153
252	0x3f49db4980000000	0.0007890805136412382
253	0x3f48e7ecc0000000	0.0007600694661960006
254	0x3f4795bd60000000	0.0007197546656243503
255	0x3f48d05ec0000000	0.0007572615286335349

cpu f4 [512]
0	0xbce5feef	-0.028075663
1	0xbd49087a	-0.04908035
2	0x3d871b25	0.06596974
3	0x3c08d297	0.00835099
4	0x3cdafd88	0.026732221
5	0xbbff0731	-0.0077828397
6	0x3d3c08e5	0.04590692
7	0x3db4afc8	0.0882259
8	0x3ce80276	0.028321486
9	0x3db50bc7	0.08840137
10	0xbcacd765	-0.021098802
11	0x3d53a8a9	0.05167452
12	0xbb9e332c	-0.0048278775
13	0xbd2b18fb	-0.04177187
14	0xbd90f3d3	-0.07077756
15	0x3c7de7e1	0.015497179
16	0x3d49ad79	0.049237702
17	0xbcc0456d	-0.023470605
18	0xbda6b1ba	-0.081393674
19	0x3d83ba3e	0.06432007
20	0xbceada25	-0.028668473
21	0xbaf3a317	-0.0018588033
22	0x3d1623d8	0.036655277
23	0xbd6e9af1	-0.058253232
24	0x3cb53a3b	0.022122493
25	0x3c48a25d	0.012245742
26	0xbdb29461	-0.08719707
27	0xbd66145e	-0.056171767
28	0xbd367bc2	-0.04455162
29	0xbcc1061e	-0.023562487
30	0xbd2e1820	-0.042503476
31	0xbce83ce3	-0.028349346
32	0x3ce22a30	0.027608007
33	0x3d5e0233	0.054201316
34	0x3d821a13	0.063526295
35	0x3d0e7daa	0.03478781
36	0x3d75f6d1	0.060049836
37	0xbb514a9f	-0.0031935347
38	0x3d6c2fc2	0.057662733
39	0xbcb53d39	-0.02212392
40	0xbb719934	-0.0036864998
41	0xbd3f102f	-0.046646293
42	0x3dae631f	0.085149996
43	0xbd92d513	-0.07169547
44	0xbbc15ddc	-0.0059010815
45	0xbd95084f	-0.07276975
46	0xbcbb9cb9	-0.02290188
47	0xbcea9f28	-0.028640345
48	0x3ce08689	0.027407901
49	0xbd60271f	-0.05472481
50	0x3b992827	0.004673976
51	0xbd8e2c5f	-0.06942057
52	0xbd9e5fb5	-0.077330984
53	0xbc6c7f21	-0.014434607
54	0xbd0fd2f8	-0.035113305
55	0x3d4856a6	0.04891076
56	0xbcc7522e	-0.024331179
57	0x3d63c193	0.05560453
58	0x3d8ea853	0.06965699
59	0xbd87b509	-0.066263266
60	0x3cba3607	0.02273084
61	0x3dba683b	0.09101912
62	0xbce80b38	-0.028325662
63	0xbd94a5b8	-0.07258171
64	0xbd88a37a	-0.06671806
65	0xbd1befbb	-0.03807042
66	0x3d2a8ffc	0.04164122
67	0xbd92c326	-0.07166128
68	0xbd2e9dee	-0.042631082
69	0x3bc4bd01	0.0060039763
70	0xbd93805e	-0.072022185
71	0x3d8d9474	0.06913081
72	0x3d9a46c2	0.07533027
73	0xbc81859e	-0.015810784
74	0x3daf864c	0.08570537
75	0xbd98ef31	-0.07467497
76	0x3bf14d03	0.007363917
77	0xbd6d6c38	-0.057964534
78	0xbd19d83d	-0.037559737
79	0xbcffaaa5	-0.0312093
80	0x3cbae5d2	0.022814665
81	0xbdad8a56	-0.08473651
82	0xbd941fc3	-0.072326206
83	0xbc705e23	-0.014670881
84	0x3d4766a1	0.04868186
85	0x3d644f43	0.055739652
86	0x3d94836d	0.0725163
87	0x3b3758e8	0.0027976576
88	0xbd8d7460	-0.069069624
89	0xbcd37814	-0.025814094
90	0xbcd284e9	-0.025698142
91	0xbcf80468	-0.030275539
92	0x3da0f7c2	0.07859756
93	0x3ccf1a18	0.025280997
94	0xbd6b3746	-0.05742576
95	0xbcf05027	-0.029335095
96	0xbda2e5c1	-0.07953978
97	0x3c00a201	0.007851125
98	0xbd8511dc	-0.06497547
99	0xbd517654	-0.051138237
100	0x3d814782	0.06312467
101	0xbcffd31a	-0.03122859
102	0x3dac348d	0.08408461
103	0xbd4925a1	-0.04910815
104	0xbd10a74c	-0.035315797
105	0x3db41547	0.08793121
106	0x3d934401	0.07190705
107	0xbc983199	-0.018578338
108	0xbd82c7cc	-0.063857645
109	0xbcd9940f	-0.026559858
110	0xbd87296c	-0.065996975
111	0xbcbf0ff9	-0.023323046
112	0x3d699e87	0.05703595
113	0xbce2361f	-0.027613698
114	0x3d8c0de8	0.0683859
115	0xbceb2420	-0.02870375
116	0x3d70d54f	0.058797177
117	0x3d1673fe	0.036731713
118	0x3cdcd364	0.026956268
119	0x3d5d4b3a	0.05402682
120	0xbd8ef35a	-0.069800094
121	0x3cbbf6bd	0.022944802
122	0xbc8e781c	-0.017391257
123	0x3da1f770	0.07908523
124	0x3d1bbdd5	0.038022835
125	0xbd1e3afa	-0.038630463
126	0x3cce4a2c	0.025181852
127	0xbcc1fb60	-0.023679435
128	0x3b9b1658	0.004732888
129	0x3d7732ed	0.0603513
130	0xbd37fee9	-0.044920836
131	0x3daf561b	0.08561345
132	0xbd2ee15d	-0.042695392
133	0xbd86099a	-0.065448
134	0xbd966ad0	-0.073445916
135	0xbd34b829	-0.04412094
136	0x3c81cd78	0.015845045
137	0x3d451811	0.048118655
138	0x3cf9a884	0.030475862
139	0x3d9d1e8c	0.07671842
140	0x3d7ba5e2	0.061437495
141	0x3c1f1646	0.0097099
142	0xbc481c3c	-0.012213763
143	0x3d67b601	0.056570057
144	0xbc49b4ee	-0.012311203
145	0xbc1f9438	-0.009739928
146	0x3d2cd329	0.042193566
147	0xbc786b1b	-0.015162255
148	0xbd8a2e52	-0.06747116
149	0xbd0b3ff9	-0.033996556
150	0x3d3019af	0.042993244
151	0x3dad26e6	0.08454685
152	0xbc8d95fc	-0.017283432
153	0xbc78053d	-0.015137968
154	0x3d12f79e	0.035880677
155	0xbca4f6e9	-0.020137267
156	0x3dacb8d2	0.08433689
157	0xbda651e7	-0.081210904
158	0xbd1f7698	-0.03893146
159	0xbd1f56e5	-0.03890123
160	0xbd28034a	-0.04101876
161	0x3ce7366f	0.028224198
162	0x3d241546	0.04005935
163	0x3d5e2578	0.05423495
164	0xbda6fe9e	-0.08154033
165	0x3b76479d	0.0037579306
166	0xbdac31c6	-0.08407931
167	0xbd282873	-0.0410542
168	0x3ca6704a	0.020317215
169	0x3ceed9ea	0.029156644
170	0x3bea38ad	0.0071478696
171	0x3d40f5be	0.047109358
172	0xbd10f239	-0.03538725
173	0xbd98bb41	-0.07457591
174	0x3b94ea6c	0.004544547
175	0xbd67d1b2	-0.056596465
176	0xbc83f813	-0.016109502
177	0x3d7191cf	0.058976945
178	0xbda23e2e	-0.07922016
179	0x3b15c7ec	0.0022854758
180	0xbd85753f	-0.065165035
181	0x3db7094c	0.0893732
182	0xbca9c43e	-0.020723458
183	0xbd857fbb	-0.06518503
184	0x3d707997	0.058709707
185	0xbcfee1ba	-0.031113494
186	0xbd420e4d	-0.04737692
187	0x3cebd1fa	0.028786648
188	0xbc15b830	-0.009138152
189	0x3da7e9b6	0.08198874
190	0xbd82db05	-0.06389431
191	0x3d7cdad4	0.06173213
192	0x3da42649	0.08015115
193	0x3d46ee74	0.04856725
194	0x3d4dcc2c	0.05024354
195	0x3d41da5b	0.04732738
196	0xbd6f60cb	-0.05844192
197	0xbd945b45	-0.07243971
198	0x3d6fab5d	0.058513034
199	0x3d612c0c	0.054973647
200	0x3c646c05	0.0139417695
201	0x3cc35cab	0.023847898
202	0x3da50c25	0.08058957
203	0x3d8f5a3d	0.069996335
204	0x3a624e45	0.0008632879
205	0xbd051cef	-0.032498296
206	0x3d784f15	0.060622294
207	0xbd8058ca	-0.06266935
208	0x3c045d45	0.008078878
209	0xbd0e8db7	-0.03480312
210	0x3c71f623	0.014768156
211	0x3c3b667f	0.011438011
212	0xbd5137bd	-0.051078547
213	0x3b75560a	0.0037435316
214	0xbcf48ab6	-0.029851299
215	0x3d20d36d	0.03926413
216	0xbd2e8adb	-0.04261289
217	0xbccff368	-0.02538462
218	0x3db772bb	0.0895743
219	0xbd0cb80c	-0.03435521
220	0x3be03c08	0.006843094
221	0x3db6709c	0.08908197
222	0x3d9536d7	0.072858505
223	0x3d988ae4	0.07448366
224	0x3bf46d43	0.007459314
225	0xbb9a537f	-0.0047096605
226	0xbc36c9d4	-0.011156518
227	0x3c104a39	0.008806759
228	0x3d8f12a4	0.06985977
229	0xbd950e1e	-0.07278083
230	0x3d4345b7	0.047673907
231	0x3d257291	0.040392462
232	0xbc82da15	-0.01597313
233	0x3d8e13d3	0.06937375
234	0xbc4adc9d	-0.0123817
235	0xbd6f5d76	-0.05843874
236	0xbcbe7c52	-0.02325264
237	0xbd780574	-0.060552076
238	0x3d57332b	0.052539032
239	0x3c5a3c14	0.013319988
240	0xbdaaefb3	-0.083465
241	0x3dac9114	0.08426109
242	0x3d83f477	0.06443112
243	0x3c3a1f6a	0.011360029
244	0xbd91315b	-0.07089492
245	0x3ae6ee63	0.0017618652
246	0x3dbbc3f0	0.091682315
247	0x3cdfed79	0.027334915
248	0x3cdfc5dc	0.027316026
249	0x3d9615d1	0.0732838
250	0x3c004f21	0.007831366
251	0xbd87dc5c	-0.06633827
252	0xbd5c2922	-0.053750165
253	0xbd87fa50	-0.0663954
254	0xbd46df14	-0.048552588
255	0xbd848a28	-0.06471664

cpu f8 [512]
0	0x3f494f6b40000000	0.0007724069291725755
1	0x3f48e40a60000000	0.0007596064242534339
2	0x3f46cb04a0000000	0.0006955883582122624
3	0x3f4759d860000000	0.0007126146811060607
4	0x3f4816f9e0000000	0.0007351608364842832
5	0x3f4745de00000000	0.0007102331146597862
6	0x3f47955a40000000	0.0007197085069492459
7	0x3f488a1200000000	0.0007488811388611794
8	0x3f46dac3c0000000	0.0006974654970690608
9	0x3f4827a880000000	0.0007371495012193918
10	0x3f480b5340000000	0.000733771943487227
11	0x3f481162e0000000	0.0007344944751821458
12	0x3f48146d20000000	0.0007348568760789931
13	0x3f46993820000000	0.0006896518752910197
14	0x3f4763b660000000	0.0007137909415178001
15	0x3f47c27de0000000	0.0007250895141623914
16	0x3f47a37b00000000	0.0007213926874101162
17	0x3f468e4840000000	0.0006883480818942189
18	0x3f480884c0000000	0.0007334373658522964
19	0x3f46f16520000000	0.0007001632475294173
20	0x3f47e2d6a0000000	0.000728945538867265
21	0x3f47821960000000	0.000717413320671767
22	0x3f46fdb660000000	0.0007016315939836204
23	0x3f46ce9280000000	0.0006960120517760515
24	0x3f49037f40000000	0.0007633563363924623
25	0x3f475f4820000000	0.0007132627652026713
26	0x3f473e3e00000000	0.0007093241438269615
27	0x3f47187620000000	0.000704820326063782
28	0x3f480cd420000000	0.0007339511648751795
29	0x3f474b0a80000000	0.0007108498830348253
30	0x3f47550fa0000000	0.0007120443624444306
31	0x3f484ae2e0000000	0.0007413490093313158
32	0x3f47aaf7e0000000	0.0007222853018902242
33	0x3f481801c0000000	0.0007352837128564715
34	0x3f49802980000000	0.0007782175671309233
35	0x3f470e3720000000	0.0007035988965071738
36	0x3f4860ae40000000	0.0007439471082761884
37	0x3f47bde6a0000000	0.000724542245734483
38	0x3f478418e0000000	0.0007176515064202249
39	0x3f49333700000000	0.0007690447382628918
40	0x3f470ff6e0000000	0.0007038073963485658
41	0x3f482cd6c0000000	0.0007377670845016837
42	0x3f480a38e0000000	0.0007336404523812234
43	0x3f48228b60000000	0.0007365398923866451
44	0x3f48bf8de0000000	0.000755256914999336
45	0x3f47834e00000000	0.0007175570353865623
46	0x3f486142c0000000	0.0007440162589773536
47	0x3f47f69820000000	0.0007313006208278239
48	0x3f4684e800000000	0.0006872303783893585
49	0x3f46e79e40000000	0.0006989977555349469
50	0x3f47cc9be0000000	0.0007262955768965185
51	0x3f476a1260000000	0.0007145490380935371
52	0x3f477cd4e0000000	0.0007167853764258325
53	0x3f48844f60000000	0.0007481944630853832
54	0x3f470092e0000000	0.0007019726908765733
55	0x3f48419a00000000	0.0007402421906590462
56	0x3f49259820000000	0.0007674210355617106
57	0x3f48810e40000000	0.0007478065090253949
58	0x3f466ea420000000	0.0006845761672593653
59	0x3f4678c8e0000000	0.0006857853732071817
60	0x3f47387ec0000000	0.00070863903965801
61	0x3f479bb3c0000000	0.0007204654393717647
62	0x3f4805cd40000000	0.0007331134984269738
63	0x3f48321f00000000	0.0007383967749774456
64	0x3f4803d780000000	0.0007328798528760672
65	0x3f4795d0e0000000	0.0007197637460194528
66	0x3f453f5ba0000000	0.0006484219920821488
67	0x3f487dcb60000000	0.0007474177400581539
68	0x3f4742dca0000000	0.0007098748465068638
69	0x3f46dc2280000000	0.000697628827765584
70	0x3f477451a0000000	0.0007157705840654671
71	0x3f47607fa0000000	0.0007134078186936677
72	0x3f48eb5de0000000	0.0007604797719977796
73	0x3f4881c740000000	0.0007478926563635468
74	0x3f479ef860000000	0.0007208550232462585
75	0x3f48b1f7e0000000	0.0007536373450420797
76	0x3f46dcf2c0000000	0.0006977258017286658
77	0x3f47ce3640000000	0.0007264866726472974
78	0x3f4699aa60000000	0.0006897050770930946
79	0x3f481e92c0000000	0.0007360664894804358
80	0x3f474bfa00000000	0.0007109614089131355
81	0x3f4734b200000000	0.0007081860676407814
82	0x3f478f20c0000000	0.000718966475687921
83	0x3f47bf0e40000000	0.0007246799068525434
84	0x3f484ea9e0000000	0.0007417993037961423
85	0x3f46e04d80000000	0.0006981256883591413
86	0x3f470f0980000000	0.0007036968600004911
87	0x3f474c5a40000000	0.0007110062288120389
88	0x3f47ee7160000000	0.0007303289021365345
89	0x3f477e4e40000000	0.0007169611053541303
90	0x3f4775eb00000000	0.0007159612141549587
91	0x3f46fe16c0000000	0.0007016764720901847
92	0x3f47acc8c0000000	0.0007225017761811614
93	0x3f4819bce0000000	0.0007354900590144098
94	0x3f47727ba0000000	0.0007155517232604325
95	0x3f47f41560000000	0.0007310013170354068
96	0x3f470211c0000000	0.0007021509809419513
97	0x3f474c7460000000	0.0007110183942131698
98	0x3f48d805e0000000	0.0007581738173030317
99	0x3f46670320000000	0.0006836667307652533
100	0x3f46ea1400000000	0.000699291005730629
101	0x3f4780c760000000	0.000717255927156657
102	0x3f494a29e0000000	0.0007717804401181638
103	0x3f47b071e0000000	0.0007229381590150297
104	0x3f47e8b980000000	0.0007296472322195768
105	0x3f482c66c0000000	0.0007377149304375052
106	0x3f4841f060000000	0.0007402824121527374
107	0x3f45fa7ee0000000	0.0006707305437885225
108	0x3f47606f40000000	0.000713400193490088
109	0x3f47ae70c0000000	0.0007226992165669799
110	0x3f46f29500000000	0.0007003047503530979
111	0x3f46bf0400000000	0.0006941575556993484
112	0x3f48172480000000	0.0007351806852966547
113	0x3f48533e60000000	0.0007423452916555107
114	0x3f498f03a0000000	0.0007799880695529282
115	0x3f4846a080000000	0.0007408412639051676
116	0x3f478daa20000000	0.0007187920273281634
117	0x3f484d4600000000	0.0007416335865855217
118	0x3f477394c0000000	0.0007156826322898269
119	0x3f47b50520000000	0.0007234835647977889
120	0x3f4825f0c0000000	0.0007369447266682982
121	0x3f483edf60000000	0.0007399168680422008
122	0x3f467596c0000000	0.000685404404066503
123	0x3f4623da60000000	0.0006756607326678932
124	0x3f47cb5de0000000	0.0007261474966071546
125	0x3f48ef4ce0000000	0.0007609486929140985
126	0x3f4711fa60000000	0.000704047444742173
127	0x3f472f57a0000000	0.0007075479370541871
128	0x3f48625b60000000	0.0007441469351761043
129	0x3f47f0fa60000000	0.0007306311163119972
130	0x3f46ac7ae0000000	0.0006919479346834123
131	0x3f482cc160000000	0.0007377571309916675
132	0x3f469168a0000000	0.0006887207855470479
133	0x3f46a978c0000000	0.0006915893172845244
134	0x3f48e12060000000	0.0007592590409331024
135	0x3f48fafa40000000	0.0007623407291248441
136	0x3f49145560000000	0.0007653633947484195
137	0x3f46468c60000000	0.0006797967362217605
138	0x3f477cc020000000	0.0007167757139541209
139	0x3f48185e80000000	0.0007353269029408693
140	0x3f48eea960000000	0.0007608725572936237
141	0x3f47a064c0000000	0.0007210246985778213
142	0x3f48edb400000000	0.0007607582956552505
143	0x3f49041780000000	0.0007634272333234549
144	0x3f4707dd00000000	0.0007028416730463505
145	0x3f48db63a0000000	0.0007585751009173691
146	0x3f489a3b60000000	0.0007508077542297542
147	0x3f479f5c60000000	0.0007209015893749893
148	0x3f463a1a60000000	0.000678313139360398
149	0x3f480f9540000000	0.0007342795142903924
150	0x3f498857c0000000	0.0007791927782818675
151	0x3f47dbc940000000	0.0007281048456206918
152	0x3f48a937a0000000	0.0007525941473431885
153	0x3f480322a0000000	0.0007327956263907254
154	0x3f46ffe240000000	0.0007018904434517026
155	0x3f47a92f60000000	0.0007220727275125682
156	0x3f4750cdc0000000	0.0007115368498489261
157	0x3f479b19c0000000	0.0007203937275335193
158	0x3f479d1200000000	0.0007206285372376442
159	0x3f47fdcbe0000000	0.0007321591838262975
160	0x3f480f1940000000	0.0007342217722907662
161	0x3f47fc5ae0000000	0.000731987354811281
162	0x3f47449aa0000000	0.0007100825314410031
163	0x3f49345de0000000	0.0007691820501349866
164	0x3f475ea0a0000000	0.0007131847669370472
165	0x3f471ff540000000	0.0007057139882817864
166	0x3f476779e0000000	0.0007142396061681211
167	0x3f47f25120000000	0.0007307907217182219
168	0x3f48c59460000000	0.0007559751975350082
169	0x3f47495920000000	0.0007106480770744383
170	0x3f47ef6640000000	0.0007304429309442639
171	0x3f4790eec0000000	0.0007191816112026572
172	0x3f486b5460000000	0.0007452165591530502
173	0x3f4891dac0000000	0.0007498090853914618
174	0x3f4856f4c0000000	0.0007427878445014358
175	0x3f47e19360000000	0.0007287950138561428
176	0x3f479ea900000000	0.0007208180613815784
177	0x3f484e98a0000000	0.0007417912711389363
178	0x3f4828d9e0000000	0.0007372917025350034
179	0x3f47d351e0000000	0.0007270955829881132
180	0x3f488b9040000000	0.0007490591378882527
181	0x3f486cd840000000	0.0007453971775248647
182	0x3f496974a0000000	0.0007755107362754643
183	0x3f47a6dba0000000	0.0007217953098006546
184	0x3f47dfc340000000	0.0007285788888111711
185	0x3f49341dc0000000	0.000769152189604938
186	0x3f48b2e7e0000000	0.0007537491037510335
187	0x3f47baff00000000	0.0007241959683597088
188	0x3f4935fe80000000	0.0007693760562688112
189	0x3f47b95980000000	0.0007239996921271086
190	0x3f47ccada0000000	0.0007263038423843682
191	0x3f48f8fe60000000	0.0007621042313985527
192	0x3f47385540000000	0.0007086197147145867
193	0x3f47a0a680000000	0.0007210553158074617
194	0x3f470a9180000000	0.0007031641434878111
195	0x3f491f1080000000	0.0007666426245123148
196	0x3f47d84b40000000	0.0007276885444298387
197	0x3f45ed20e0000000	0.0006691370508633554
198	0x3f47446c80000000	0.000710061052814126
199	0x3f47d706e0000000	0.0007275374955497682
200	0x3f47c37300000000	0.0007252036593854427
201	0x3f48253600000000	0.0007368577644228935
202	0x3f47b7e400000000	0.0007238257676362991
203	0x3f47c09e40000000	0.0007248661713674664
204	0x3f47578a20000000	0.0007123398245312274
205	0x3f48e08700000000	0.0007591876201331615
206	0x3f46b80d60000000	0.0006933274562470615
207	0x3f47e26f20000000	0.0007288973429240286
208	0x3f47b23c80000000	0.0007231517229229212
209	0x3f47bc6920000000	0.0007243645959533751
210	0x3f47c51360000000	0.0007253975491039455
211	0x3f48e848e0000000	0.0007601123652420938
212	0x3f483d1fe0000000	0.0007397084846161306
213	0x3f4a0f9240000000	0.0007953132735565305
214	0x3f46ffeb40000000	0.0007018946344032884
215	0x3f46c7f5e0000000	0.0006952238618396223
216	0x3f4837a820000000	0.0007390566752292216
217	0x3f4aaac240000000	0.0008138130651786923
218	0x3f496be220000000	0.0007758001447655261
219	0x3f4798e820000000	0.0007201322005130351
220	0x3f47988620000000	0.0007200865657068789
221	0x3f47734b40000000	0.0007156484061852098
222	0x3f48db2100000000	0.0007585440762341022
223	0x3f4af8bf40000000	0.0008231099927797914
224	0x3f48a57e00000000	0.0007521500810980797
225	0x3f4741be60000000	0.000709741550963372
226	0x3f4857a560000000	0.0007428700919263065
227	0x3f48210000000000	0.0007363557815551758
228	0x3f46e8bca0000000	0.0006991311092860997
229	0x3f47bb85c0000000	0.0007242587162181735
230	0x3f4839d240000000	0.000739314709790051
231	0x3f46d63f40000000	0.0006969269597902894
232	0x3f48414d20000000	0.0007402063929475844
233	0x3f488964a0000000	0.0007488004048354924
234	0x3f47d67ce0000000	0.0007274732342921197
235	0x3f46d68660000000	0.0006969600799493492
236	0x3f488b0dc0000000	0.0007489983690902591
237	0x3f47a81200000000	0.0007219398394227028
238	0x3f475581a0000000	0.0007120974478311837
239	0x3f480ee3c0000000	0.0007341968594118953
240	0x3f47d4d180000000	0.0007272742222994566
241	0x3f487bd140000000	0.0007471820572391152
242	0x3f4974b9c0000000	0.000776854227297008
243	0x3f47151c40000000	0.0007044208468869328
244	0x3f47512560000000	0.0007115776534192264
245	0x3f487746c0000000	0.00074664072599262
246	0x3f46dc88a0000000	0.0006976763834245503
247	0x3f47ce3e20000000	0.0007264903397299349
248	0x3f48abf900000000	0.0007529226131737232
249	0x3f489ff860000000	0.0007514918106608093
250	0x3f47e8f500000000	0.0007296749390661716
251	0x3f48506460000000	0.000742005358915776
252	0x3f48b07d60000000	0.0007534610922448337
253	0x3f47d08300000000	0.0007267608307301998
254	0x3f4647e9c0000000	0.0006799594266340137
255	0x3f473d3fe0000000	0.0007092058076523244
